{"format": "torch", "nodes": [{"name": "bert", "id": 139967203802976, "class_name": "BertModel(\n  (embeddings): BertEmbeddings(\n    (word_embeddings): Embedding(28996, 768, padding_idx=0)\n    (position_embeddings): Embedding(512, 768)\n    (token_type_embeddings): Embedding(2, 768)\n    (LayerNorm): LayerNorm((768,), eps=1e-12, elementwise_affine=True)\n    (dropout): Dropout(p=0.1, inplace=False)\n  )\n  (encoder): BertEncoder(\n    (layer): ModuleList(\n      (0): BertLayer(\n        (attention): BertAttention(\n          (self): BertSelfAttention(\n            (query): Linear(in_features=768, out_features=768, bias=True)\n            (key): Linear(in_features=768, out_features=768, bias=True)\n            (value): Linear(in_features=768, out_features=768, bias=True)\n            (dropout): Dropout(p=0.1, inplace=False)\n          )\n          (output): BertSelfOutput(\n            (dense): Linear(in_features=768, out_features=768, bias=True)\n            (LayerNorm): LayerNorm((768,), eps=1e-12, elementwise_affine=True)\n            (dropout): Dropout(p=0.1, inplace=False)\n            (attention_text_task_adapters): ModuleDict()\n            (adapter_fusion_layer): ModuleDict()\n            (attention_text_lang_adapters): ModuleDict()\n          )\n        )\n        (intermediate): BertIntermediate(\n          (dense): Linear(in_features=768, out_features=3072, bias=True)\n        )\n        (output): BertOutput(\n          (dense): Linear(in_features=3072, out_features=768, bias=True)\n          (LayerNorm): LayerNorm((768,), eps=1e-12, elementwise_affine=True)\n          (dropout): Dropout(p=0.1, inplace=False)\n          (adapter_fusion_layer): ModuleDict()\n          (layer_text_task_adapters): ModuleDict(\n            (mnli): Adapter(\n              (non_linearity): Activation_Function_Class()\n              (adapter_down): Sequential(\n                (0): Linear(in_features=768, out_features=48, bias=True)\n                (1): Activation_Function_Class()\n              )\n              (adapter_up): Linear(in_features=48, out_features=768, bias=True)\n            )\n          )\n          (layer_text_lang_adapters): ModuleDict()\n        )\n      )\n      (1): BertLayer(\n        (attention): BertAttention(\n          (self): BertSelfAttention(\n            (query): Linear(in_features=768, out_features=768, bias=True)\n            (key): Linear(in_features=768, out_features=768, bias=True)\n            (value): Linear(in_features=768, out_features=768, bias=True)\n            (dropout): Dropout(p=0.1, inplace=False)\n          )\n          (output): BertSelfOutput(\n            (dense): Linear(in_features=768, out_features=768, bias=True)\n            (LayerNorm): LayerNorm((768,), eps=1e-12, elementwise_affine=True)\n            (dropout): Dropout(p=0.1, inplace=False)\n            (attention_text_task_adapters): ModuleDict()\n            (adapter_fusion_layer): ModuleDict()\n            (attention_text_lang_adapters): ModuleDict()\n          )\n        )\n        (intermediate): BertIntermediate(\n          (dense): Linear(in_features=768, out_features=3072, bias=True)\n        )\n        (output): BertOutput(\n          (dense): Linear(in_features=3072, out_features=768, bias=True)\n          (LayerNorm): LayerNorm((768,), eps=1e-12, elementwise_affine=True)\n          (dropout): Dropout(p=0.1, inplace=False)\n          (adapter_fusion_layer): ModuleDict()\n          (layer_text_task_adapters): ModuleDict(\n            (mnli): Adapter(\n              (non_linearity): Activation_Function_Class()\n              (adapter_down): Sequential(\n                (0): Linear(in_features=768, out_features=48, bias=True)\n                (1): Activation_Function_Class()\n              )\n              (adapter_up): Linear(in_features=48, out_features=768, bias=True)\n            )\n          )\n          (layer_text_lang_adapters): ModuleDict()\n        )\n      )\n      (2): BertLayer(\n        (attention): BertAttention(\n          (self): BertSelfAttention(\n            (query): Linear(in_features=768, out_features=768, bias=True)\n            (key): Linear(in_features=768, out_features=768, bias=True)\n            (value): Linear(in_features=768, out_features=768, bias=True)\n            (dropout): Dropout(p=0.1, inplace=False)\n          )\n          (output): BertSelfOutput(\n            (dense): Linear(in_features=768, out_features=768, bias=True)\n            (LayerNorm): LayerNorm((768,), eps=1e-12, elementwise_affine=True)\n            (dropout): Dropout(p=0.1, inplace=False)\n            (attention_text_task_adapters): ModuleDict()\n            (adapter_fusion_layer): ModuleDict()\n            (attention_text_lang_adapters): ModuleDict()\n          )\n        )\n        (intermediate): BertIntermediate(\n          (dense): Linear(in_features=768, out_features=3072, bias=True)\n        )\n        (output): BertOutput(\n          (dense): Linear(in_features=3072, out_features=768, bias=True)\n          (LayerNorm): LayerNorm((768,), eps=1e-12, elementwise_affine=True)\n          (dropout): Dropout(p=0.1, inplace=False)\n          (adapter_fusion_layer): ModuleDict()\n          (layer_text_task_adapters): ModuleDict(\n            (mnli): Adapter(\n              (non_linearity): Activation_Function_Class()\n              (adapter_down): Sequential(\n                (0): Linear(in_features=768, out_features=48, bias=True)\n                (1): Activation_Function_Class()\n              )\n              (adapter_up): Linear(in_features=48, out_features=768, bias=True)\n            )\n          )\n          (layer_text_lang_adapters): ModuleDict()\n        )\n      )\n      (3): BertLayer(\n        (attention): BertAttention(\n          (self): BertSelfAttention(\n            (query): Linear(in_features=768, out_features=768, bias=True)\n            (key): Linear(in_features=768, out_features=768, bias=True)\n            (value): Linear(in_features=768, out_features=768, bias=True)\n            (dropout): Dropout(p=0.1, inplace=False)\n          )\n          (output): BertSelfOutput(\n            (dense): Linear(in_features=768, out_features=768, bias=True)\n            (LayerNorm): LayerNorm((768,), eps=1e-12, elementwise_affine=True)\n            (dropout): Dropout(p=0.1, inplace=False)\n            (attention_text_task_adapters): ModuleDict()\n            (adapter_fusion_layer): ModuleDict()\n            (attention_text_lang_adapters): ModuleDict()\n          )\n        )\n        (intermediate): BertIntermediate(\n          (dense): Linear(in_features=768, out_features=3072, bias=True)\n        )\n        (output): BertOutput(\n          (dense): Linear(in_features=3072, out_features=768, bias=True)\n          (LayerNorm): LayerNorm((768,), eps=1e-12, elementwise_affine=True)\n          (dropout): Dropout(p=0.1, inplace=False)\n          (adapter_fusion_layer): ModuleDict()\n          (layer_text_task_adapters): ModuleDict(\n            (mnli): Adapter(\n              (non_linearity): Activation_Function_Class()\n              (adapter_down): Sequential(\n                (0): Linear(in_features=768, out_features=48, bias=True)\n                (1): Activation_Function_Class()\n              )\n              (adapter_up): Linear(in_features=48, out_features=768, bias=True)\n            )\n          )\n          (layer_text_lang_adapters): ModuleDict()\n        )\n      )\n      (4): BertLayer(\n        (attention): BertAttention(\n          (self): BertSelfAttention(\n            (query): Linear(in_features=768, out_features=768, bias=True)\n            (key): Linear(in_features=768, out_features=768, bias=True)\n            (value): Linear(in_features=768, out_features=768, bias=True)\n            (dropout): Dropout(p=0.1, inplace=False)\n          )\n          (output): BertSelfOutput(\n            (dense): Linear(in_features=768, out_features=768, bias=True)\n            (LayerNorm): LayerNorm((768,), eps=1e-12, elementwise_affine=True)\n            (dropout): Dropout(p=0.1, inplace=False)\n            (attention_text_task_adapters): ModuleDict()\n            (adapter_fusion_layer): ModuleDict()\n            (attention_text_lang_adapters): ModuleDict()\n          )\n        )\n        (intermediate): BertIntermediate(\n          (dense): Linear(in_features=768, out_features=3072, bias=True)\n        )\n        (output): BertOutput(\n          (dense): Linear(in_features=3072, out_features=768, bias=True)\n          (LayerNorm): LayerNorm((768,), eps=1e-12, elementwise_affine=True)\n          (dropout): Dropout(p=0.1, inplace=False)\n          (adapter_fusion_layer): ModuleDict()\n          (layer_text_task_adapters): ModuleDict(\n            (mnli): Adapter(\n              (non_linearity): Activation_Function_Class()\n              (adapter_down): Sequential(\n                (0): Linear(in_features=768, out_features=48, bias=True)\n                (1): Activation_Function_Class()\n              )\n              (adapter_up): Linear(in_features=48, out_features=768, bias=True)\n            )\n          )\n          (layer_text_lang_adapters): ModuleDict()\n        )\n      )\n      (5): BertLayer(\n        (attention): BertAttention(\n          (self): BertSelfAttention(\n            (query): Linear(in_features=768, out_features=768, bias=True)\n            (key): Linear(in_features=768, out_features=768, bias=True)\n            (value): Linear(in_features=768, out_features=768, bias=True)\n            (dropout): Dropout(p=0.1, inplace=False)\n          )\n          (output): BertSelfOutput(\n            (dense): Linear(in_features=768, out_features=768, bias=True)\n            (LayerNorm): LayerNorm((768,), eps=1e-12, elementwise_affine=True)\n            (dropout): Dropout(p=0.1, inplace=False)\n            (attention_text_task_adapters): ModuleDict()\n            (adapter_fusion_layer): ModuleDict()\n            (attention_text_lang_adapters): ModuleDict()\n          )\n        )\n        (intermediate): BertIntermediate(\n          (dense): Linear(in_features=768, out_features=3072, bias=True)\n        )\n        (output): BertOutput(\n          (dense): Linear(in_features=3072, out_features=768, bias=True)\n          (LayerNorm): LayerNorm((768,), eps=1e-12, elementwise_affine=True)\n          (dropout): Dropout(p=0.1, inplace=False)\n          (adapter_fusion_layer): ModuleDict()\n          (layer_text_task_adapters): ModuleDict(\n            (mnli): Adapter(\n              (non_linearity): Activation_Function_Class()\n              (adapter_down): Sequential(\n                (0): Linear(in_features=768, out_features=48, bias=True)\n                (1): Activation_Function_Class()\n              )\n              (adapter_up): Linear(in_features=48, out_features=768, bias=True)\n            )\n          )\n          (layer_text_lang_adapters): ModuleDict()\n        )\n      )\n      (6): BertLayer(\n        (attention): BertAttention(\n          (self): BertSelfAttention(\n            (query): Linear(in_features=768, out_features=768, bias=True)\n            (key): Linear(in_features=768, out_features=768, bias=True)\n            (value): Linear(in_features=768, out_features=768, bias=True)\n            (dropout): Dropout(p=0.1, inplace=False)\n          )\n          (output): BertSelfOutput(\n            (dense): Linear(in_features=768, out_features=768, bias=True)\n            (LayerNorm): LayerNorm((768,), eps=1e-12, elementwise_affine=True)\n            (dropout): Dropout(p=0.1, inplace=False)\n            (attention_text_task_adapters): ModuleDict()\n            (adapter_fusion_layer): ModuleDict()\n            (attention_text_lang_adapters): ModuleDict()\n          )\n        )\n        (intermediate): BertIntermediate(\n          (dense): Linear(in_features=768, out_features=3072, bias=True)\n        )\n        (output): BertOutput(\n          (dense): Linear(in_features=3072, out_features=768, bias=True)\n          (LayerNorm): LayerNorm((768,), eps=1e-12, elementwise_affine=True)\n          (dropout): Dropout(p=0.1, inplace=False)\n          (adapter_fusion_layer): ModuleDict()\n          (layer_text_task_adapters): ModuleDict(\n            (mnli): Adapter(\n              (non_linearity): Activation_Function_Class()\n              (adapter_down): Sequential(\n                (0): Linear(in_features=768, out_features=48, bias=True)\n                (1): Activation_Function_Class()\n              )\n              (adapter_up): Linear(in_features=48, out_features=768, bias=True)\n            )\n          )\n          (layer_text_lang_adapters): ModuleDict()\n        )\n      )\n      (7): BertLayer(\n        (attention): BertAttention(\n          (self): BertSelfAttention(\n            (query): Linear(in_features=768, out_features=768, bias=True)\n            (key): Linear(in_features=768, out_features=768, bias=True)\n            (value): Linear(in_features=768, out_features=768, bias=True)\n            (dropout): Dropout(p=0.1, inplace=False)\n          )\n          (output): BertSelfOutput(\n            (dense): Linear(in_features=768, out_features=768, bias=True)\n            (LayerNorm): LayerNorm((768,), eps=1e-12, elementwise_affine=True)\n            (dropout): Dropout(p=0.1, inplace=False)\n            (attention_text_task_adapters): ModuleDict()\n            (adapter_fusion_layer): ModuleDict()\n            (attention_text_lang_adapters): ModuleDict()\n          )\n        )\n        (intermediate): BertIntermediate(\n          (dense): Linear(in_features=768, out_features=3072, bias=True)\n        )\n        (output): BertOutput(\n          (dense): Linear(in_features=3072, out_features=768, bias=True)\n          (LayerNorm): LayerNorm((768,), eps=1e-12, elementwise_affine=True)\n          (dropout): Dropout(p=0.1, inplace=False)\n          (adapter_fusion_layer): ModuleDict()\n          (layer_text_task_adapters): ModuleDict(\n            (mnli): Adapter(\n              (non_linearity): Activation_Function_Class()\n              (adapter_down): Sequential(\n                (0): Linear(in_features=768, out_features=48, bias=True)\n                (1): Activation_Function_Class()\n              )\n              (adapter_up): Linear(in_features=48, out_features=768, bias=True)\n            )\n          )\n          (layer_text_lang_adapters): ModuleDict()\n        )\n      )\n      (8): BertLayer(\n        (attention): BertAttention(\n          (self): BertSelfAttention(\n            (query): Linear(in_features=768, out_features=768, bias=True)\n            (key): Linear(in_features=768, out_features=768, bias=True)\n            (value): Linear(in_features=768, out_features=768, bias=True)\n            (dropout): Dropout(p=0.1, inplace=False)\n          )\n          (output): BertSelfOutput(\n            (dense): Linear(in_features=768, out_features=768, bias=True)\n            (LayerNorm): LayerNorm((768,), eps=1e-12, elementwise_affine=True)\n            (dropout): Dropout(p=0.1, inplace=False)\n            (attention_text_task_adapters): ModuleDict()\n            (adapter_fusion_layer): ModuleDict()\n            (attention_text_lang_adapters): ModuleDict()\n          )\n        )\n        (intermediate): BertIntermediate(\n          (dense): Linear(in_features=768, out_features=3072, bias=True)\n        )\n        (output): BertOutput(\n          (dense): Linear(in_features=3072, out_features=768, bias=True)\n          (LayerNorm): LayerNorm((768,), eps=1e-12, elementwise_affine=True)\n          (dropout): Dropout(p=0.1, inplace=False)\n          (adapter_fusion_layer): ModuleDict()\n          (layer_text_task_adapters): ModuleDict(\n            (mnli): Adapter(\n              (non_linearity): Activation_Function_Class()\n              (adapter_down): Sequential(\n                (0): Linear(in_features=768, out_features=48, bias=True)\n                (1): Activation_Function_Class()\n              )\n              (adapter_up): Linear(in_features=48, out_features=768, bias=True)\n            )\n          )\n          (layer_text_lang_adapters): ModuleDict()\n        )\n      )\n      (9): BertLayer(\n        (attention): BertAttention(\n          (self): BertSelfAttention(\n            (query): Linear(in_features=768, out_features=768, bias=True)\n            (key): Linear(in_features=768, out_features=768, bias=True)\n            (value): Linear(in_features=768, out_features=768, bias=True)\n            (dropout): Dropout(p=0.1, inplace=False)\n          )\n          (output): BertSelfOutput(\n            (dense): Linear(in_features=768, out_features=768, bias=True)\n            (LayerNorm): LayerNorm((768,), eps=1e-12, elementwise_affine=True)\n            (dropout): Dropout(p=0.1, inplace=False)\n            (attention_text_task_adapters): ModuleDict()\n            (adapter_fusion_layer): ModuleDict()\n            (attention_text_lang_adapters): ModuleDict()\n          )\n        )\n        (intermediate): BertIntermediate(\n          (dense): Linear(in_features=768, out_features=3072, bias=True)\n        )\n        (output): BertOutput(\n          (dense): Linear(in_features=3072, out_features=768, bias=True)\n          (LayerNorm): LayerNorm((768,), eps=1e-12, elementwise_affine=True)\n          (dropout): Dropout(p=0.1, inplace=False)\n          (adapter_fusion_layer): ModuleDict()\n          (layer_text_task_adapters): ModuleDict(\n            (mnli): Adapter(\n              (non_linearity): Activation_Function_Class()\n              (adapter_down): Sequential(\n                (0): Linear(in_features=768, out_features=48, bias=True)\n                (1): Activation_Function_Class()\n              )\n              (adapter_up): Linear(in_features=48, out_features=768, bias=True)\n            )\n          )\n          (layer_text_lang_adapters): ModuleDict()\n        )\n      )\n      (10): BertLayer(\n        (attention): BertAttention(\n          (self): BertSelfAttention(\n            (query): Linear(in_features=768, out_features=768, bias=True)\n            (key): Linear(in_features=768, out_features=768, bias=True)\n            (value): Linear(in_features=768, out_features=768, bias=True)\n            (dropout): Dropout(p=0.1, inplace=False)\n          )\n          (output): BertSelfOutput(\n            (dense): Linear(in_features=768, out_features=768, bias=True)\n            (LayerNorm): LayerNorm((768,), eps=1e-12, elementwise_affine=True)\n            (dropout): Dropout(p=0.1, inplace=False)\n            (attention_text_task_adapters): ModuleDict()\n            (adapter_fusion_layer): ModuleDict()\n            (attention_text_lang_adapters): ModuleDict()\n          )\n        )\n        (intermediate): BertIntermediate(\n          (dense): Linear(in_features=768, out_features=3072, bias=True)\n        )\n        (output): BertOutput(\n          (dense): Linear(in_features=3072, out_features=768, bias=True)\n          (LayerNorm): LayerNorm((768,), eps=1e-12, elementwise_affine=True)\n          (dropout): Dropout(p=0.1, inplace=False)\n          (adapter_fusion_layer): ModuleDict()\n          (layer_text_task_adapters): ModuleDict(\n            (mnli): Adapter(\n              (non_linearity): Activation_Function_Class()\n              (adapter_down): Sequential(\n                (0): Linear(in_features=768, out_features=48, bias=True)\n                (1): Activation_Function_Class()\n              )\n              (adapter_up): Linear(in_features=48, out_features=768, bias=True)\n            )\n          )\n          (layer_text_lang_adapters): ModuleDict()\n        )\n      )\n      (11): BertLayer(\n        (attention): BertAttention(\n          (self): BertSelfAttention(\n            (query): Linear(in_features=768, out_features=768, bias=True)\n            (key): Linear(in_features=768, out_features=768, bias=True)\n            (value): Linear(in_features=768, out_features=768, bias=True)\n            (dropout): Dropout(p=0.1, inplace=False)\n          )\n          (output): BertSelfOutput(\n            (dense): Linear(in_features=768, out_features=768, bias=True)\n            (LayerNorm): LayerNorm((768,), eps=1e-12, elementwise_affine=True)\n            (dropout): Dropout(p=0.1, inplace=False)\n            (attention_text_task_adapters): ModuleDict()\n            (adapter_fusion_layer): ModuleDict()\n            (attention_text_lang_adapters): ModuleDict()\n          )\n        )\n        (intermediate): BertIntermediate(\n          (dense): Linear(in_features=768, out_features=3072, bias=True)\n        )\n        (output): BertOutput(\n          (dense): Linear(in_features=3072, out_features=768, bias=True)\n          (LayerNorm): LayerNorm((768,), eps=1e-12, elementwise_affine=True)\n          (dropout): Dropout(p=0.1, inplace=False)\n          (adapter_fusion_layer): ModuleDict()\n          (layer_text_task_adapters): ModuleDict(\n            (mnli): Adapter(\n              (non_linearity): Activation_Function_Class()\n              (adapter_down): Sequential(\n                (0): Linear(in_features=768, out_features=48, bias=True)\n                (1): Activation_Function_Class()\n              )\n              (adapter_up): Linear(in_features=48, out_features=768, bias=True)\n            )\n          )\n          (layer_text_lang_adapters): ModuleDict()\n        )\n      )\n    )\n  )\n  (pooler): BertPooler(\n    (dense): Linear(in_features=768, out_features=768, bias=True)\n    (activation): Tanh()\n  )\n  (invertible_lang_adapters): ModuleDict()\n)", "parameters": [["embeddings.word_embeddings.weight", [28996, 768]], ["embeddings.position_embeddings.weight", [512, 768]], ["embeddings.token_type_embeddings.weight", [2, 768]], ["embeddings.LayerNorm.weight", [768]], ["embeddings.LayerNorm.bias", [768]], ["encoder.layer.0.
…
